Net - Linear/sim_autoencoder.pth (torch, 884975 bytes, 16 tensors)

encoder.0.weight f4 [128, 784]
00000000: bc84 fdba 94dc b7ba eb32 fcba 3d08 00bb
00000010: 0f10 07bb 26b9 0dbb 441d 9dba 3279 caba
00000020: 63ec 91ba 3821 ecba 709d c3ba 2ba0 f6ba
00000030: fcb0 55bb 5bc6 80bb 0800 0cbb bc30 c4ba
00000040: d7d3 10bb 98db 0abb 4854 c7ba 3fab d7ba
00000050: 64fa 96ba 16b7 0cbb 28e4 fcba 1806 caba
00000060: 6ec6 a0ba 00c3 95ba 1b74 aeba a479 0abb
00000070: 415c 09bb 884a a5ba cc4b 05bb 18f5 bdba
00000080: 41cc 03bb 4d8b 0fbb f9bf 103a 8e5b 493b
00000090: 55b6 ccbb ffce d3bb 29f2 5ebb 8943 c5bb
000000a0: 2164 9bbc 6f02 24bc 7ee7 953b 74a0 023c
000000b0: 0e53 8e3c 8bd2 143c 4de9 1c3c cf72 fd3a
000000c0: d47b d6ba 9c38 1dbb 90b4 66bb ac90 60bb
000000d0: 90ec b8ba d35f 90ba a054 a6ba 0842 ccba
000000e0: 5209 00bb 1c71 09bb fbfa eeba 40a2 a6ba
000000f0: f9e2 3dbb 9aee e4ba 32e9 633b 27b6 963b
00000100: f8bc b0bc e387 1fbd df5e 42bd f5d5 1bbd
00000110: cff8 16bd d326 a43b 997a 2d3d ed1f 243d
00000120: 7d84 1f3d 5e32 943c 5c00 c63b 867b 97bc
00000130: 148b 21bc e60a 14bc 927d 95bb 3853 dfbb
00000140: 96b5 13bb 8b4f 02bb 7c88 b8ba beed 9eba
00000150: 5e37 b0ba a623 99ba 89e7 9aba e22f 0bba
00000160: c65f 9bba 63dc b1ba 02a3 feba 088b 5f3c
00000170: 5954 19bc 3f9e 4cbc 130a a1bc 2bb6 47bd
00000180: d48f abbc 6da7 7ebd 6fb4 c8bc fb60 e23b
00000190: 2f49 823d a716 413d 62a5 503d b82e 303c
000001a0: b46b 8aba 276d 1bbb 9ff1 90bc c05c b0bc
000001b0: a572 6cbc c48c 43bb aebe c4ba 3c5a d3ba
000001c0: e5b0 0cbb c9e0 ebba d297 f0ba 0f7a 6abb
000001d0: 6a22 80bb 9105 56bb 2114 b7bb 8071 c23c
000001e0: be69 973c b89e 4ebd e048 6bbd 89cc b33b
000001f0: 1d16 a83d b188 153e 632c fa3d 0039 a73d
00000200: 747e fd3c c313 883d 384a af3d 6877 403d
00000210: f5f3 483d 4be2 013c d40c 9b3b 3f0d 313c
00000220: 0ada 03bc d0a0 6ebc 2999 26bb 0e66 fbba
00000230: 0635 d4ba 90bc 93ba a3c5 9aba 434a adbc
00000240: 08f4 e3bc 381a 70bb cf99 443c 0515 483c
00000250: c4c7 493c 0cb8 41bc 3278 613d 905a 3f3c
00000260: 7028 55bd 8f4d cfbb 7ac8 58bd f92a f3bc
00000270: a0ca 22be 2403 adbd ddeb 93bc ffe8 043d
00000280: 499e a53c ace0 1d3c 60de db3a 5dc1 e4bc
00000290: 0901 c6bc 3b4b 90bb 1e59 f6bb 178f 48bb
000002a0: be28 a8ba d62b 8aba 00ed 85ba 7ce5 9ebc
000002b0: f09f e1bc 580c 1d3d 8f8f d33d ada1 253d
000002c0: 50b7 28bd 2b4d 263d 5419 acbd 4d0b 8fbd
000002d0: 435f d0bc 8598 403c 3b1d c9bd 6e3e 21bb
000002e0: 9668 47bd 8209 e13a 6014 c23a f57a 19bc
000002f0: 986d 993c 4dd0 ab3c b680 9fbd 8f52 bfbd
00000300: 8b30 99bd 7db1 a7bc 1e6b fb3b 6446 bcba
00000310: 4aa8 09bb 2ef2 1dbb 7735 91bb c32a abbc
00000320: 3aac 4bbd 6a86 633d 51c5 ba3d b083 03bd
00000330: 6804 8ebc 68f6 5c3d 370b 19bb 9e19 fcbc
00000340: 88a2 313d 8f63 ac3d 8ae8 31bd a483 18bc
00000350: 841f 583b c547 2bbc fe36 693d 1c43 a13c
00000360: 9853 0e3c 22cd 713d 7dc9 403c 5a96 d9bd
00000370: 846e dbbd 6b1f 32bd 44a3 403b ad2c 1fbb
00000380: bb58 aaba 7241 7ebb 0725 4ebc c0c5 3abd
00000390: 22a5 a1bd bb94 82bd ca24 71bd 48fe 253c
000003a0: 59cb 9dbc 5945 a7bc 5ca2 3fbd 6c4c 66bd
000003b0: ae91 08be 1c27 afbb 4bab 98bc f5f0 c9bd
000003c0: dfb7 0fbe 06a3 0bbe 8c3a aabd d5cb 22bd
000003d0: 3db9 723d f5a3 b43d 83ad d5bc 2e13 a8bc
000003e0: bf21 6ebd 2584 023c 799d 1e3c 21ac 44bb
000003f0: 3df9 d0ba c0a3 6fba 544d bbbc dc31 6abd
-0.0019341926 -0.0014027529 -0.0019241249 -0.001953616 -0.0020608937 -0.002162525 -0.0011986871 -0.0015447496
-0.0011133071 -0.0018015271 -0.0014924239 -0.0018816044 -0.0032606712 -0.003929896 -0.0021362323 -0.0014968137
-0.0022098923 -0.0021188017 -0.0015207613 -0.0016454234 -0.0011518714 -0.0021471432 -0.001929407 -0.0015413193
-0.0012266168 -0.0011425912 -0.0013309749 -0.0021129632 -0.0020959529 -0.0012610713 -0.0020339368 -0.0014492599
-0.0020110758 -0.0021903098 0.000552177 0.0030724737 -0.0062473216 -0.006463885 -0.003401885 -0.0060200137
-0.018968644 -0.010010346 0.004574715 0.007972825 0.017373588 0.0090834005 0.009577108 0.0019336584
-0.0016363808 -0.002399004 -0.0035202838 -0.0034265919 -0.0014108587 -0.0011014886 -0.0012690015 -0.0015583644
-0.0019536805 -0.002097196 -0.0018232757 -0.0012713149 -0.0028974398 -0.0017466128 0.0034776446 0.004599351
-0.021574482 -0.03894795 -0.047453757 -0.038045842 -0.036858376 0.005009511 0.042353246 0.04006951
0.03894471 0.018090423 0.0060425233 -0.018491518 -0.009859819 -0.0090358015 -0.0045620883 -0.0068153404
-0.0022538654 -0.0019883837 -0.0014078761 -0.0012125296 -0.0013444235 -0.0011683598 -0.001181827 -0.00053095643
-0.0011854104 -0.0013569709 -0.0019427242 0.0136439875 -0.009358489 -0.012488901 -0.019658124 -0.048757713
-0.020942606 -0.06217139 -0.0245001 0.0069085336 0.06361615 0.047140744 0.05093897 0.010753326
-0.0010560662 -0.0023716183 -0.017693339 -0.021528602 -0.01443163 -0.0029838542 -0.001501044 -0.0016124914
-0.0021467742 -0.0017996068 -0.0018355793 -0.003577832 -0.0039103525 -0.0032657126 -0.0055871163 0.023735762
0.018483039 -0.050444335 -0.057442546 0.005487029 0.08207343 0.14602925 0.12215497 0.08165169
0.030944087 0.06644394 0.08559078 0.046988875 0.04906078 0.007927488 0.004731754 0.010806381
-0.00804759 -0.014564708 -0.002542088 -0.0019180195 -0.0016190119 -0.0011271406 -0.0011808168 -0.021153575
-0.027826324 -0.0036636721 0.011999561 0.012212043 0.012315694 -0.011823665 0.055046268 0.011679307
-0.052040517 -0.0063263844 -0.052925564 -0.029683577 -0.15897608 -0.08447865 -0.018056804 0.032448765
0.020217078 0.0096360855 0.0016774647 -0.027924234 -0.024170415 -0.0044034994 -0.007517948 -0.0030602866
-0.0012829525 -0.0010541629 -0.0010217726 -0.019396536 -0.027542084 0.03834185 0.10330116 0.04043739
-0.041190445 0.040600937 -0.084032685 -0.06984577 -0.02543605 0.0117551135 -0.098200284 -0.0024603861
-0.048683725 0.0017168971 0.0014807098 -0.009367694 0.018729016 0.020973349 -0.077882215 -0.09341919
-0.07479962 -0.020470375 0.0076726815 -0.001436424 -0.002100485 -0.002410065 -0.0044314223 -0.020894414
-0.049724795 0.05554811 0.09119666 -0.03210801 -0.017336085 0.05394593 -0.0023352632 -0.030773934
0.043367893 0.08417427 -0.043434657 -0.009308729 0.003297777 -0.010454123 0.05693721 0.01968532
0.0086869225 0.05903352 0.011766789 -0.106243804 -0.107144386 -0.043486994 0.002939419 -0.0024288103
-0.0012996414 -0.0038796333 -0.01258207 -0.045598745 -0.07892825 -0.06376024 -0.058872975 0.010131426
-0.019262003 -0.02041881 -0.046785697 -0.056225225 -0.13336822 -0.0053452384 -0.018636366 -0.09860412
-0.14034985 -0.13636407 -0.08311948 -0.03974517 0.05925869 0.08820335 -0.026083713 -0.020516958
-0.05813765 0.007966076 0.009681099 -0.0030009823 -0.001594342 -0.0009141527 -0.022864021 -0.057176456

encoder.0.bias f4 [128]
00000000: ea54 023b 2a94 4eb9 4891 a4b5 6e30 97bb
00000010: 01c3 debb e17b d0ab 0122 ccac 0073 b4b3
00000020: fc79 12bd d525 6abc 8bfa e4bb 225a f5bc
00000030: 1226 a4b7 808c a5b0 5f10 a5b3 8b4f a5bc
00000040: 508d deb5 c07e 8cbc dd22 223d cd2f 8ab9
00000050: 0f6e 64b5 df46 673c 03b9 d9bc 8dde 78b8
00000060: a61c 71bc 3d13 82bb f613 80bd 67e7 90bb
00000070: 888d 8ebc 86ff 9dbc a7f4 36bc a56e 21bd
00000080: 4be4 253d 5d09 9fa9 0bba 9cb6 c735 edbc
00000090: ac4e eb3c ac3f 87bb b67c e2bb 9cc6 1f3b
000000a0: 5eed 8ebb 932b 13b9 48be d13c 1de3 00b7
000000b0: 4dc2 cd3b 8046 62bc 11e3 2bb3 de3f 4dbd
000000c0: fac6 4cba 3148 29b8 0ecb b7bb 4ae6 fdbc
000000d0: 99bc b7bc faab 8dba 3b5d 3dbc 33da a8bc
000000e0: 6468 3cbc 3dd3 73bb 5d1c 69bc dbf7 5f3d
000000f0: aaef 71bc f266 2eb8 2e6e a5bc fe71 b3bc
00000100: ec50 8db9 9b3b 6cbc df0d 46bb 7d97 9abc
00000110: aee1 02bd d4b1 88bc 7df0 263c 7428 46b8
00000120: adb0 debc 8f41 9cb3 89bd 02bb 2a6c 593c
00000130: a528 74ad 8a60 8fbc 0861 dbba 30ea 803b
00000140: ae3e 733c f396 783c c2df 053c 3385 28bc
00000150: c5cb 20bc ca65 17bb 79c7 5cbc d440 6abd
00000160: 1d43 beb9 cef5 d839 4c76 29af 398a 65bc
00000170: 3592 27b9 ab5f 9dbb d1bc f9b1 df6e 8ca1
00000180: 768a 12bb 6639 343c 2e8a 12bd b445 45bc
00000190: 8c11 ac9b bbf3 e4a1 de0e 80bb 692d afbb
000001a0: 3e97 d6bc 4716 023c 2bc4 ecba 7f47 5cbc
000001b0: db64 efaf 230b 3abc e588 cca9 2416 aebb
000001c0: 1f3e d3bb 386a a1ba d92d b6bc b92f 5399
000001d0: 96bf abbc 48ce 90b4 714d 9cb4 77e7 d0b8
000001e0: c2f3 33bc aa44 5dbc faed 8fbb 9e0c 7a3a
000001f0: b84e b5bc 52ce a13a bc8c 9cad c5ec 85bd
0.0019887039 -0.00019700886 -1.2261235e-06 -0.0046139276 -0.0067981486 -1.4813672e-12 -5.801804e-12 -8.4028215e-08
-0.035760865 -0.014291246 -0.006987875 -0.029950205 -1.9568051e-05 -1.2045263e-09 -7.686389e-08 -0.02017953
-1.6581416e-06 -0.017150283 0.03958403 -0.00026357025 -8.5096775e-07 0.014116018 -0.026577478 -5.9335074e-05
-0.014716303 -0.0039695785 -0.06253807 -0.0044221166 -0.017401472 -0.019286882 -0.011166728 -0.03941216
0.04050092 -7.062643e-14 -4.6708205e-06 -0.028956307 0.028724037 -0.0041274633 -0.0069118394 0.0024379855
-0.0043617925 -0.00014035245 0.025603428 -7.6822735e-06 0.006279266 -0.013810754 -4.0020556e-08 -0.050109737
-0.0007811632 -4.0359973e-05 -0.005608923 -0.0309936 -0.022428798 -0.0010808699 -0.011557872 -0.020611858
-0.011499498 -0.0037204765 -0.014227954 0.054679733 -0.014766613 -4.1580708e-05 -0.02019414 -0.021904942
-0.00026953907 -0.014418508 -0.003022067 -0.018871063 -0.031953506 -0.016686358 0.010189173 -4.7244554e-05
-0.027183855 -7.276241e-08 -0.0019949398 0.013270417 -1.3878819e-11 -0.017502088 -0.0016737292 0.0039341673
0.014846487 0.015172708 0.008171024 -0.010285663 -0.009814207 -0.0023101442 -0.013475292 -0.05719073
-0.00036289627 0.0004138187 -1.5412488e-10 -0.014010006 -0.00015980827 -0.0048026643 -7.2683197e-09 -9.516116e-19
-0.0022360361 0.011000013 -0.03577631 -0.012040544 -2.8466352e-22 -1.5514396e-18 -0.0039080223 -0.0053459895
-0.026195165 0.007939882 -0.0018063834 -0.01344478 -4.354551e-10 -0.011355194 -9.083167e-14 -0.005312698
-0.0064466144 -0.0012314981 -0.022238659 -1.0918082e-23 -0.020965379 -2.697218e-07 -2.911361e-07 -9.9613266e-05
-0.010983409 -0.01350514 -0.0043923827 0.0009538623 -0.022132263 0.0012344813 -1.7797645e-11 -0.06539301

encoder.2.weight f4 [64, 128]
00000000: bac0 50bd 0773 ddbb 54f6 153d 3e9c b3bd
00000010: a46b 963d dbe1 ffb7 f187 cb3b 8777 c7bc
00000020: 00aa 1fbd b3dc a13c 9f2d 853d 9a45 0f3e
00000030: bc5b 5f3c 28ec 3fbd 24d7 063c ec60 a13d
00000040: 8951 8bbb afbd f93d 77e7 883c 26ef 06be
00000050: cc1b 10bc 6a98 173d f1d1 a63c 3fcb b33c
00000060: 1ff9 583d 108a debe f17e 863f 62ba 1f38
00000070: 08e6 cebd 0862 f33a 3545 373c 4f5d eb3b
00000080: d332 12bf ac04 e5b3 2413 c1ba 7891 a83d
00000090: 9965 a1bc 3a0c a5bd 6252 5ebc 5711 14bf
000000a0: fed5 a9bc 0608 bdb6 899c 6bbe 07ce 803a
000000b0: 9549 ac3c 61a5 d63d 1e5d c1bc f8c7 1c3f
000000c0: d795 e6bd dba9 0c3d 59fc 67bd f695 c23e
000000d0: b606 033d c01c 3ebd a545 ae3c cbac 443c
000000e0: 9299 e9bc d178 e1be 97f1 8ebb 2a80 d73c
000000f0: dc8e 97bd 79ef a73c d07b 6f3d a048 9e3e
00000100: 6683 27bb 830e 25bf 4559 bc3b d5d7 82ba
00000110: 2bef acbe 8b70 ac3d 832d 233d 41ae df39
00000120: c060 50be 0dfc a3bc 3566 353e fc7e 19be
00000130: 004d 4e3a e306 af3c 01e8 893c d7f0 cb3d
00000140: be06 04bc 4fd8 a73a 9c8d 27bc 0fa7 28be
00000150: 0d12 663d caeb dfbe 002a afbd 895a 0fbe
00000160: dbb4 0b3b 3afe 953b 5683 9434 8742 043f
00000170: e3db 06bd 61cb f23c 45a2 1937 72aa 7a3b
00000180: a933 a7bc 0ac9 42bb 5e67 943d 2223 42bc
00000190: a71a bf3a 6f88 573c 810d 143d 489a 433c
000001a0: 1a11 683c e0a5 943c b5eb 72bc ac36 57be
000001b0: e5da 0fbb 1deb 34bc 2e8d 7dbc b45e b63d
000001c0: 2262 d8bd ccde e6bc 8d60 a5bd a992 063c
000001d0: d46d b1bb 8dc9 d13c 204e 09bd ddf3 41bc
000001e0: 4290 eabd 8060 b2bc 2777 e5be e96a 08be
000001f0: c3db 1e3e ced9 e4bd 7db6 61bb cf30 573f
00000200: 6a19 5801 60d8 0501 215b 7301 a063 9800
00000210: 2c62 0a81 d98b 7c01 5837 9d80 a5c6 5500
00000220: e130 2400 b925 3101 f0d3 8f80 e016 fd80
00000230: de91 8481 8512 4680 26db 2c01 3c89 2a81
00000240: ad5a a200 44ba 2101 7153 b2b1 7311 5a00
00000250: 056c 2a00 ac1a 3b00 035e 1f81 d067 1001
00000260: 8811 7381 2105 a880 6757 5481 04fd 8281
00000270: 4523 4101 4a97 3c80 1857 0101 4f62 6a1a
00000280: cdf6 7cb0 e873 3181 b8bf ec00 e659 3b80
00000290: 07c8 1181 65fe 8900 1823 8100 e05e 0280
000002a0: 5ca7 6081 726c 8c80 3098 fda4 7410 0f81
000002b0: 06d0 1b00 3654 b880 6e48 b681 d4ef 9701
000002c0: 4854 7e81 a8ae 4481 aa36 9c81 8716 bb01
000002d0: 2a4f 6c01 a426 3701 9a35 a988 009a 2d01
000002e0: 8b43 7081 cacd 8a98 12c2 ea80 e100 22af
000002f0: 7c54 6d80 9f6a 2600 f4a4 9901 5ff3 a701
00000300: 3e2a b201 1636 b381 7cbd 1580 76d2 8501
00000310: c57a e280 dfa3 2200 7294 3001 8ddc 8181
00000320: b651 6381 6f75 2800 49c5 3c80 b4ef 4581
00000330: f4ea f980 4ea1 3d80 6f21 4c01 722d 7b80
00000340: f643 6300 e74c 1d81 0a39 c888 1e76 fe00
00000350: 8b86 7400 32aa 2980 a60c 9201 daa2 5401
00000360: d2b0 0a81 90a2 e280 96cb 1c81 c2d3 7100
00000370: 4609 2701 8afe 4101 54e2 b781 fd00 a181
00000380: e87b c080 745a b080 cc4f 4d80 a8da 0f01
00000390: 1883 a000 5916 d600 c8e7 be01 6014 5200
000003a0: f1ff 5081 caa2 3581 5d5a 6e01 df0a a501
000003b0: 3018 7b01 2b64 8981 0a07 2600 b800 8f80
000003c0: bb41 cd80 1dee d280 113f 0c81 78a2 7c01
000003d0: 7bbf c700 4c8d 4000 1711 2081 bed9 d380
000003e0: 6270 5a01 b413 7701 2edb 7100 9087 8601
000003f0: 3482 9a01 2eba 0280 783d 2600 c432 d380
-0.05096505 -0.006758097 0.03661187 -0.08770035 0.073447496 -3.0503541e-05 0.006211274 -0.024348987
-0.038980484 0.019758558 0.06502842 0.13991395 0.013632711 -0.046856076 0.008230004 0.078798145
-0.004251663 0.121943824 0.016711934 -0.13177165 -0.00879569 0.037010588 0.02036378 0.021947501
0.052971955 -0.43464708 1.050749 3.8082137e-05 -0.10102469 0.0018568644 0.011185934 0.007182754
-0.571088 -1.0664493e-07 -0.0014730436 0.08230871 -0.019701766 -0.08058973 -0.013569446 -0.5783896
-0.020731922 -5.633573e-06 -0.23008932 0.0009827026 0.02103118 0.10480762 -0.023603972 0.6124263
-0.112590484 0.034341674 -0.05663714 0.38005036 0.031988822 -0.046414137 0.021273443 0.012004088
-0.02851561 -0.44037488 -0.004362296 0.02630623 -0.07400295 0.020499932 0.058467686 0.30914783
-0.0025560497 -0.6447527 0.0057479464 -0.0009982536 -0.3377622 0.08419903 0.039838325 0.00042663704
-0.20349407 -0.020017648 0.1771477 -0.14989847 0.000786975 0.021365589 0.01683426 0.09958046
-0.008058248 0.0012805554 -0.010226633 -0.16469978 0.05616956 -0.4373458 -0.08552933 -0.1399938
0.0021317515 0.0045774253 2.7662708e-07 0.5166401 -0.032924544 0.029637994 9.157292e-06 0.0038248566
-0.020410376 -0.002972188 0.07246278 -0.011849197 0.0014580087 0.013155087 0.03614569 0.011938639
0.014164234 0.018145502 -0.014826705 -0.2101695 -0.002195054 -0.0110423835 -0.015475554 0.08904782
-0.10565592 -0.02818241 -0.08075056 0.008213677 -0.005414704 0.025608802 -0.03352177 -0.011837927
-0.11453296 -0.02177453 -0.4481747 -0.13322033 0.1551352 -0.111743554 -0.0034441047 0.8405885
3.9691168e-38 2.4583483e-38 4.4697433e-38 1.3994734e-38 -2.5417032e-38 4.6385426e-38 -1.4438026e-38 7.877277e-39
3.323612e-39 3.253683e-38 -1.3208505e-38 -2.3242587e-38 -4.869845e-38 -6.435128e-39 3.1748642e-38 -3.132253e-38
1.4909879e-38 2.970467e-38 -5.189968e-09 8.271454e-39 3.895841e-39 5.427862e-39 -2.9271138e-38 2.6523105e-38
-4.464463e-38 -1.5430203e-38 -3.9000958e-38 -4.811752e-38 3.5473806e-38 -5.564402e-39 2.3756045e-38 4.846948e-23
-9.202779e-10 -3.2592924e-38 2.1741953e-38 -5.450544e-39 -2.6775806e-38 1.2672723e-38 1.1859368e-38 -2.17706e-40
-4.1262377e-38 -1.2895872e-38 -1.09979076e-16 -2.6276756e-38 2.554183e-39 -1.692794e-38 -6.696017e-38 5.5812776e-38
-4.67129e-38 -3.6124824e-38 -5.738379e-38 6.8725276e-38 4.3403152e-38 3.3639515e-38 -1.0183919e-33 3.188557e-38
-4.4129498e-38 -3.5879958e-24 -2.1559125e-38 -1.4734126e-10 -1.0040376e-38 3.527997e-39 5.644002e-38 6.169533e-38
6.544749e-38 -6.5831825e-38 -1.99652e-39 4.915848e-38 -2.0798864e-38 3.181193e-39 3.24326e-38 -4.770359e-38
-4.175194e-38 3.715547e-39 -5.580902e-39 -3.6355164e-38 -2.2951324e-38 -5.65983e-39 3.749287e-38 -1.1312069e-38
9.116094e-39 -2.889152e-38 -1.2050472e-33 2.3368588e-38 1.0701182e-38 -3.82631e-39 5.365008e-38 3.905509e-38
-2.547346e-38 -2.0813139e-38 -2.879874e-38 1.0453375e-38 3.067971e-38 3.5631124e-38 -6.754835e-38 -5.914348e-38
-1.7676864e-38 -1.6195496e-38 -7.099959e-39 2.642183e-38 1.4740707e-38 1.9660813e-38 7.0127567e-38 7.53782e-39
-3.8387195e-38 -3.3361245e-38 4.377853e-38 6.0627027e-38 4.6118773e-38 -5.0469586e-38 3.492274e-39 -1.3132734e-38
-1.8849856e-38 -1.9370873e-38 -2.5759187e-38 4.6401656e-38 1.8343954e-38 5.92816e-39 -2.939962e-38 -1.9455401e-38
4.0120907e-38 4.538087e-38 1.0456038e-38 4.941835e-38 5.67575e-38 -2.5046e-40 3.5118e-39 -1.9395501e-38

encoder.2.bias f4 [64]
00000000: 045f 4d3a 0ec7 1500 ae39 2f3e 7ec2 b23d
00000010: 864e 91bb 8dee 88bc be55 ef97 91f1 3792
00000020: abd0 883b 1022 0700 e547 8aa6 85cc 0c3e
00000030: b0c2 f88c 5b9a 203d e28b ca3d 6171 32a4
00000040: 9378 463b 7cdb a400 2db1 293e bad3 943d
00000050: a3d4 15be 07a9 478e 1584 8f80 9c02 1f3e
00000060: 185f 6c80 4115 fd00 8d91 373e 482e 4001
00000070: d43a 353d 2c41 843d 76bd 513d 597c acb8
00000080: 293b 8bab e7ac 089f 8fe2 2209 7dbe 293c
00000090: 2f79 e73d 44bd 87aa e9ca 5495 bcf3 0b3e
000000a0: 46fc 2381 f317 f73d eb15 f63d d45a 383e
000000b0: d853 d700 d5b6 d580 c2d8 a23d df2a 2181
000000c0: 1ffd f980 ac25 5abc 16f6 2cbd 5eef 543d
000000d0: 5882 a83d b8e2 ee3d 354e 5280 1dd1 b23d
000000e0: 68e2 3581 b352 f23b 2da2 15b3 96e2 853c
000000f0: c6ed 4bbb 0cd1 ee80 9753 f900 4eb5 2281
0.0007834288 1.999953e-39 0.17111847 0.08728503 -0.0044344096 -0.016715312 -1.5466657e-24 -5.804237e-28
0.004175266 6.55068e-40 -9.595161e-16 0.13749893 -3.8327623e-31 0.039209705 0.09889962 -3.8693633e-17
0.003028427 1.5139758e-38 0.16571493 0.07266946 -0.14631896 -2.4610027e-30 -1.3179858e-38 0.15528339
-9.952347e-39 2.3242005e-38 0.17926617 3.5298036e-38 0.044245556 0.06457743 0.051206075 -8.224761e-05
-9.892964e-13 -2.8942142e-20 1.9606568e-33 0.010360357 0.11302411 -2.4112147e-13 -4.2973127e-26 0.13667196
-3.011937e-38 0.12065115 0.12015899 0.18003398 1.9774709e-38 -1.9626548e-38 0.079514995 -2.9601788e-38
-2.2957841e-38 -0.013314646 -0.042226873 0.05198609 0.08227986 0.11664337 -7.558566e-39 0.087312914
-3.3406888e-38 0.0073951124 -3.4839264e-08 0.016343396 -0.0031117066 -2.193184e-38 2.2897025e-38 -2.988478e-38

encoder.4.weight f4 [12, 64]
00000000: a1f3 c43e 9609 6316 3a9c 0f3e ffd3 eb3d
00000010: a95c 2b3b 819c 47be 9479 6d39 9acd aea7
00000020: 589d 05be ac7c e8a7 4e2d 3ea8 14d5 743e
00000030: 92e7 dfb6 0450 223d 1b12 eb3d 7cf8 a734
00000040: e2d7 c6bd 31ef c832 21a8 443e a620 ac3e
00000050: e694 0c3c 496b 8f38 47b0 e222 def6 073e
00000060: 8185 f52b 7a97 88b4 b515 b13f 8274 0500
00000070: ea86 43bc 5f3d ae3e b4f7 57be 1156 223b
00000080: b032 ba38 c165 23ba 4edc f29f 58fa 793f
00000090: e358 963e ceb6 1fba 850f c82c 4c88 6a3d
000000a0: 0256 9db2 45fa 6c3d 1559 8b3d 76e5 063e
000000b0: 713f 5d2d e7c2 3239 2e72 8c3d b794 a037
000000c0: 45d3 60b5 8ab8 163c 2521 01bd aaeb b2be
000000d0: 1fc5 053e bb80 513d 78c3 ecb0 519c 6d3e
000000e0: fb87 782f 4ccf 8b3e 8d87 9aba e0fe b9bd
000000f0: 3b7b 14bd 2cc6 9fb1 aa33 fe9b e115 b326
00000100: f91a 6ebe fcbe 0701 b8c8 ccbb e084 61bd
00000110: 3057 733b 5889 483e 1400 ae38 63b5 0536
00000120: aa41 713d d26e 2131 0d13 e13a aa60 0a3e
00000130: 4793 ceb7 1821 873c 7698 433e 2e47 9138
00000140: 94db 683e 66f9 5338 cd82 3c3e e969 3d3e
00000150: 6d46 76be b70f 2fba af44 4f2e 3fc7 10bd
00000160: 1a98 03af a0f9 b432 8ba1 28c0 ab20 0981
00000170: 8e6f b43e 1715 54bf 3c38 5cbd 3f31 44b9
00000180: 7a48 49ba 9aa4 3e3a 2462 be99 990a 44be
00000190: 216b 273e 0c0f 85ba 023c 0a32 2844 bf3d
000001a0: 7305 3b35 9c7d 6f3e 318b a03d ff48 9e3e
000001b0: 5f79 1cb3 233a d4b9 9e5f 433e c813 adb5
000001c0: 5033 1939 559e 62bb 92e8 23bd a268 183e
000001d0: a623 483d 6ab6 56bf ab9b 2f38 c956 893d
000001e0: 4ff6 87b2 7e74 4c3e a15d 633c 84f5 9dbd
000001f0: bc02 253d 0b6b da34 4553 842b 717a 10ae
00000200: 6f58 15bf 3a49 1201 4be5 8f3d 0899 143d
00000210: 4cf8 cc3c 732e 26bd e93f edb7 77ab 0b22
00000220: 1572 47bd cee5 2c2d b72f 313b d2e7 b03d
00000230: ac73 9bb4 6100 b03d 0573 a83c b8c4 48b9
00000240: ca59 1c3d 9568 4837 0d3d 173e 9d9f acbe
00000250: a325 55be a0a7 7eab d1c0 7323 2a82 a13e
00000260: d7a9 9331 d151 fcb1 21a3 453e 2c0f 8fa2
00000270: 43d1 03be 6b79 5cbf a42d fcbc 4df2 b93a
00000280: 3816 e63a dd96 e336 28f2 f706 6d38 0bbd
00000290: d9e3 023f 77f5 983b 2a3f bf37 9fdd 783d
000002a0: bf74 c82f 31bd ec3c 1f64 723e 2177 3b3e
000002b0: 615d 8b39 dc5c 9534 e7e2 ce3d 310a 153a
000002c0: 2dcd b5b0 9163 433c 6368 3fbc d602 1dbf
000002d0: 9900 8c3e 586b 46bc 61c9 b338 e955 753e
000002e0: 5ea3 b32d af93 e73e 231d 3a3c 6d16 af3e
000002f0: 09f8 0c3c 1ab8 7636 795f 7119 fa50 d431
00000300: 7ec7 e1bd d2c0 5981 4b26 06bf 0c6e 753e
00000310: acf8 57b2 c38d 583e 5130 af01 98d5 3d80
00000320: 7b66 e73e 3ae5 bc80 1378 1800 030e 803e
00000330: 2eea 9800 5fa1 01be fdf0 98be b9ee 8701
00000340: fad2 bbbc 3ed1 4901 fe59 a1be ec24 933c
00000350: 7913 c780 c7fe b401 15c0 1901 d0bd 3abe
00000360: 1a6e 7501 5007 4300 dc5d 343e f86f 6a81
00000370: ab44 2f3d 6b87 1b3e 6a56 0fbe 2576 933a
00000380: 67c0 c4aa 7a7b 4e80 70e5 b280 87cb 4b3e
00000390: 71ed db3e d779 60b5 8727 a012 214d babe
000003a0: 3f28 7980 37b3 4c3e 21f6 a53e 586c bdbd
000003b0: c57f 8601 7818 b181 2d96 01bf 8e60 a080
000003c0: 0790 c180 74ea cabb 2875 8fbb 742c 833c
000003d0: 5cfb 4cbd be24 de3d ec5d 1081 f2e4 24be
000003e0: 029b 9f81 f32a 29bd 3ee5 269b a1c5 833e
000003f0: d4c9 14bb 129b 0c80 5e23 a001 041a 1181
0.38467124 1.8339939e-25 0.1402444 0.115150444 0.002614776 -0.19493295 0.00022647373 -4.8517615e-15
-0.13048303 -6.4528105e-15 -1.0556943e-14 0.23909408 -6.672876e-06 0.03962709 0.11478063 3.128697e-07
-0.09709145 2.3391836e-08 0.19204761 0.3361866 0.008580422 6.838755e-05 6.1444064e-18 0.13277766
1.7445352e-12 -2.5442188e-07 1.383475 5.00973e-40 -0.0119340215 0.34031197 -0.21090585 0.0024770538
8.8786124e-05 -0.0006233119 -1.0285545e-19 0.9764762 0.2936469 -0.00060926087 5.686065e-12 0.05725889
-1.8316317e-08 0.057855863 0.068041004 0.1317347 1.2576482e-11 0.0001704801 0.068577155 1.9142737e-05
-8.375394e-07 0.009199271 -0.03152575 -0.34945422 0.13063477 0.051148158 -1.7226816e-09 0.23204161
2.2603779e-10 0.27306592 -0.0011789665 -0.09081817 -0.036250334 -4.6500386e-09 -4.2054162e-22 1.242655e-15
-0.23252477 2.4932609e-38 -0.0062495135 -0.05505836 0.0037130825 0.19583642 8.296981e-05 1.9924125e-06
0.058900513 2.3491578e-09 0.0017171815 0.13513437 -2.4625695e-05 0.016495273 0.19101128 6.927397e-05
0.22740012 5.053859e-05 0.18409272 0.18497433 -0.24050303 -0.0006678062 4.7127354e-11 -0.035346266
-1.1968418e-10 2.1068274e-08 -2.6348598 -2.5186364e-38 0.3524136 -0.8284468 -0.053764567 -0.00018710362
-0.00076783414 0.00072724523 -1.9685178e-23 -0.19144668 0.1634946 -0.0010151579 8.046301e-09 0.09339172
6.967086e-07 0.2338776 0.07839049 0.30915067 -3.6431967e-08 -0.00040479106 0.19079444 -1.2895262e-06
0.00014610332 -0.0034579237 -0.04001672 0.14883664 0.048862122 -0.8387209 4.186823e-05 0.06706006
-1.5828077e-08 0.19966313 0.013877303 -0.07712844 0.04028581 4.0683548e-07 9.402276e-13 -3.285056e-11
-0.58338064 2.6868502e-38 0.07026156 0.036278754 0.02502074 -0.04057164 -2.8282362e-05 1.8928785e-18
-0.04869278 9.828095e-12 0.0027036497 0.08637966 -2.8955162e-07 0.08593822 0.020562658 -0.0001914677
0.038171567 1.1945279e-05 0.14769383 -0.33715525 -0.20815139 -9.0471554e-13 1.3213887e-17 0.3154462
4.2975716e-09 -7.3434667e-09 0.1930051 -3.877629e-18 -0.12872796 -0.8612277 -0.030783482 0.0014186591
0.0017554229 6.78269e-06 9.326689e-35 -0.03398936 0.5112892 0.0046679336 2.2798387e-05 0.06075823
3.646274e-10 0.028898807 0.23671006 0.18307163 0.0002658172 2.7820977e-07 0.10101872 0.00056854176
-1.3227798e-09 0.011925594 -0.011682603 -0.6133245 0.27344206 -0.012110554 8.572895e-05 0.23958553
2.0422494e-11 0.4522986 0.011359486 0.34196797 0.008604058 3.6764018e-06 1.24786885e-23 6.179218e-09
-0.11024378 -3.9994947e-38 -0.5240218 0.23967761 -1.25711885e-08 0.21147828 6.435418e-38 -5.678588e-39
0.45195374 -1.7347304e-38 2.247126e-39 0.2501069 1.4043003e-38 -0.12659214 -0.2987136 4.993372e-38
-0.02292775 3.7067993e-38 -0.3151397 0.017961942 -1.8282249e-38 6.6487145e-38 2.8239474e-38 -0.1823647
4.5078387e-38 6.155601e-39 0.1761393 -4.3059346e-38 0.042790096 0.15188377 -0.13997808 0.001125042
-3.49501e-13 -7.207464e-39 -1.6429025e-38 0.19901858 0.4295459 -8.3623803e-07 1.0107164e-27 -0.3638697
-1.1126533e-38 0.1999024 0.32414344 -0.092491806 4.9407166e-38 -6.505464e-38 -0.50619775 -1.4728317e-38
-1.7775918e-38 -0.0061925 -0.00437798 0.016012408 -0.050044402 0.10846852 -2.6516009e-38 -0.1610296
-5.86298e-38 -0.041300725 -1.380527e-22 0.25736716 -0.0022703307 -1.157655e-39 5.8825467e-38 -2.665096e-38

encoder.4.bias f4 [12]
00000000: 3223 bd3d 22dd 913e 347a c53d 2efc 4abc
00000010: 8c67 a800 88a1 2c81 383f 833e f387 d43d
00000020: 1e1b 5e3e 3ef0 993d a498 fab9 347d 213e
0.092352286 0.28489023 0.09642449 -0.012389226 1.5465509e-38 -3.1707304e-38 0.2563417 0.10377493
0.21690032 0.07516526 -0.00047797442 0.15770417

encoder.6.weight f4 [3, 12]
00000000: eb42 67bd 7337 463f ea16 8d3e 0f6c 70bf
00000010: 800b 2980 25eb 57aa 12e2 b03e 6b3f 08bf
00000020: 307f 403e 2d59 153e be03 323c 348f 0cbe
00000030: 3eb1 95be 0deb 8e3e 5fc7 bbbe 41df e63e
00000040: 9155 8e2c 9306 08b4 85db f83c 393c 0f3e
00000050: 6862 3d3f dc49 1fbf c685 6f3c 1d7a fc3c
00000060: 91ee 0cbf aba2 993e dda6 df3c 23c5 09bf
00000070: 09c4 0b80 e30c 85a9 6835 fcbe 2466 22be
00000080: 85a8 8bbe d753 b13e 462a c33c b568 17bf
-0.056460302 0.7742836 0.27556545 -0.93914884 -3.769381e-39 -1.9177418e-13 0.34547478 -0.5322177
0.18798518 0.14584799 0.01086515 -0.13726503 -0.29236788 0.27913705 -0.36675546 0.45092204
4.0453825e-12 -1.2668379e-07 0.030378113 0.13987817 0.7397828 -0.62222075 0.014619296 0.030819947
-0.55051523 0.30006918 0.027301246 -0.5381643 -1.080515e-39 -5.908622e-14 -0.49259496 -0.15859276
-0.27277008 0.34634277 0.023823868 -0.59144145

encoder.6.bias f4 [3]
00000000: cbf0 143e 50ed 99bd f8c8 dc3d
0.1454498 -0.07515967 0.10780519

decoder.0.weight f4 [12, 3]
00000000: 1cfb 95be 7ca4 933e d6cc 2fbf c1cb b9bf
00000010: 6b94 9a3e 1a18 a2bd 7908 54be f90e a1be
00000020: 98ff 00bf 48ae f93e 0af3 fb3e 5b89 abbe
00000030: fce5 25bd 461f 103e 9962 1c3d a906 31be
00000040: 33b3 0dbe b5f9 ffbe 46ec df3e 5e63 233f
00000050: 253a a83c a462 a23d 791e 98bf 87fc d2be
00000060: b239 333f e4c6 50be e223 89be e203 4e3f
00000070: d7d6 293f 18d5 1e3f b226 59be 7d7b aa3f
00000080: 6a39 08bf f722 993e 3612 9d3c 70ce ef3d
-0.29293144 0.2883643 -0.6867193 -1.4515306 0.3019136 -0.07914753 -0.20706357 -0.31456736
-0.50390005 0.4876578 0.49208862 -0.3350323 -0.040502533 0.1407443 0.038179968 -0.17287697
-0.1383789 -0.499952 0.4373495 0.638235 0.020535538 0.079289705 -1.18843 -0.41208288
0.7000991 -0.20388371 -0.2678519 0.80474675 0.66343445 0.62043905 -0.21206167 1.3318936
-0.53212607 0.2990949 0.019173723 0.11709297

decoder.0.bias f4 [12]
00000000: 6763 1a3f 1dc0 c2be 3496 33bb 1454 34bf
00000010: dff2 0b40 0e65 dcbe fc3c b5bf 78fb 163f
00000020: 1623 8d3e efe0 39bd 303f ea3e 0b0e 1940
0.60307926 -0.38037196 -0.002740276 -0.70440793 2.1866987 -0.4304585 -1.4159236 0.5897746
0.2756583 -0.04538053 0.45751333 2.391482

decoder.2.weight f4 [64, 12]
00000000: 8b0d 1e3b 539a 2bbe fbc6 f43d d451 8c3e
00000010: 71d2 24be d46b 963e 1920 a13d a0db 093c
00000020: 087b 1e3e 2c27 7bbe 8e00 04be ecf3 2ebd
00000030: ddb8 3a3d 5cb8 473e f946 273e 0884 043e
00000040: d4ce a3be 36ab 673e 8bd5 1f3d e5c0 a33d
00000050: 6c20 3f3e 6366 01be 1650 1dbe 17a9 81be
00000060: ccd2 f2bd 8845 d13e 8042 c73a 9447 3b3e
00000070: 1376 7fbf 0236 2e3e 832f 943e 6e64 8a3e
00000080: 89f5 903e f9ce 043f 9c20 edbd 5cc8 07bf
00000090: 6e5b 023e 33ab bc3d cc00 2c3e d2b3 2dbf
000000a0: b993 db3e 1e81 d53d b3d5 a3be b35b 4e3e
000000b0: 2e3d 89be 19f2 1f3f b97d 15bd b8f6 9a3e
000000c0: df4b 183e 3c0f 75be 7b77 cbbc 35b9 cbbe
000000d0: d72c 0a3e 8971 d23d 9e2a 6bbd bcde 9a3c
000000e0: 35e4 86bd 0d1a 0d3f f5c8 8a3d 96e3 b0bd
000000f0: 1fdc 24bb 0a84 ffb3 b631 35b9 82ca baba
00000100: bc3c e9b3 c315 46b9 c634 a0b7 26c8 58b9
00000110: b283 17ba d685 e5b4 e91d 93bb 3f0b f7b5
00000120: 447d 073d ac3a 1cbe 2172 4d3e 76af d33d
00000130: f6f1 393e e774 43bd 2871 92bd e10b cabd
00000140: d2d5 1a3e 0fca 1d3e 202f bcbd 3a57 4cbe
00000150: a338 443e 399a e8be d3e8 833d 60b3 f43d
00000160: 3907 763e cfac 353e c5cf 7ebe 0eb3 94be
00000170: 785f 883e b860 4c3d 549c c4bd 6677 54be
00000180: 1a2c 473e 2565 4cbe 12c8 323c 2bc6 49be
00000190: 6267 24be ef2b 3d3e d0f1 ec3d 8303 a03e
000001a0: ed21 bd3e f7a3 a83e 5ab7 08bf 86fe cd3c
000001b0: cc33 963e 27a3 9dbe 2c60 d73c 2534 78be
000001c0: ac25 0a3f e0e3 203e 8fb4 f33b aca7 363e
000001d0: bf28 b5be 00c2 5b3e 0dde 233e 4223 933e
000001e0: 876f adbe 4915 85be 394d 25be 68bb f0be
000001f0: 07ac eb3e a8bd 3d3e ee9d 9bbe e221 023e
00000200: fa6e be3e 0441 003f 5a42 d6be 69d0 813f
00000210: b075 ec3d 76e0 77be 76f8 033e b2e2 67bd
00000220: 555c c7bc 728a 97be 348e cebd 1c2b d03c
00000230: d12f 9e3e 10dc 53bf f13d 203e 9b9c f13d
00000240: daf2 333d 8257 ee3e e50f 093e 1af2 773e
00000250: 4084 0abf fa1e 6a3c b5de c63e 854d 6bbf
00000260: 94ec 95be 86fd b83b e3b4 463e 6ea5 81bf
00000270: 71d6 32bf 0944 933e 1fb3 2fbe 8e25 69bd
00000280: 23cb 6e3d d130 89be ba60 9ebe d334 2b3f
00000290: 7db8 0d3f e80d 41bd fe2f afbf b3db 513f
000002a0: 40a7 783e 62fd a3be 2421 293d dd7b e93d
000002b0: 852c ecbe 88b7 823e 5023 0d3e c100 b13e
000002c0: 5eab 093e 00db 9abe a81c 2abd b52f 22bf
000002d0: 90a9 953e c148 a9be fcf8 883e a8b2 a3be
000002e0: 3219 22be 6915 b8bd 6ccc 86bd 69a3 ff3e
000002f0: 6f92 633e 8c90 0a3f 6c23 afbe afb7 75be
00000300: 0f10 ba3d e58a a0be 9e43 99bd 1cf0 c63b
00000310: 11f0 f93e c1d6 e4bd 7ded 43be 925e 1ebe
00000320: 4b1a a7be 8bed 953d 7133 e93e e82a 513e
00000330: e132 debe 0267 293c 0a39 01be c5a4 8c3e
00000340: 84dd 8ebc eb56 4ebe d101 563e c0a7 4bbd
00000350: ab24 c93e 28f3 923d 179f 28be a6bd ca3e
00000360: b6e0 8e3e 6d1d f73d af01 5fbe 57c9 eabe
00000370: b715 363f 5c3d 7ebe af08 a5bd 1646 69bc
00000380: fc7b 32be 38f7 e63e 11a6 ed3d 5ffd c63e
00000390: 4f20 8f3d 0bd5 053e 9424 c23e 7859 08bf
000003a0: 8404 6a3c 0ee3 be3e 02a9 d13d 4304 1c3f
000003b0: 2904 8abd ae8b 71bf ad20 d0be 6685 57be
000003c0: 96d4 663d ebc4 c2be a674 e23d 5d92 8c3e
000003d0: d772 d93e 962e 60bd 7a29 82be 102f b13d
000003e0: 2b2c 0b3e d22c eebe 769f 5dbe 47c6 a23e
000003f0: 985d 4b3e 093b 8fbe 0caa c23d 5278 4bbe
0.002411696 -0.16758089 0.11952015 0.2740618 -0.16095902 0.2937914 0.0786745 0.008414179
0.1547662 -0.24526662 -0.12890837 -0.04271309 0.045586456 0.19503921 0.16335668 0.12940991
-0.31993735 0.22623906 0.03902201 0.07995776 0.18664712 -0.12636714 -0.15362582 -0.25324318
-0.118566126 0.4087336 0.0015202314 0.18289024 -0.9978954 0.1701279 0.289425 0.27029747
0.28312328 0.51878315 -0.11578485 -0.530401 0.1273019 0.09212341 0.16797179 -0.6785251
0.4288614 0.10425018 -0.31998977 0.20152168 -0.2680449 0.62478787 -0.03649685 0.30266356
0.14872693 -0.23931593 -0.024837246 -0.3978974 0.13493668 0.10275561 -0.05741369 0.018905036
-0.06586496 0.55117875 0.06776611 -0.086371586 -0.0025155616 -1.18983806e-07 -0.00017280024 -0.0014251026
-1.08609555e-07 -0.00018890858 -1.909806e-05 -0.00020673926 -0.0005779817 -4.2751952e-07 -0.0044896496 -1.8406207e-06
0.033078447 -0.15256757 0.20063068 0.10336201 0.18158707 -0.04771891 -0.07150489 -0.09865547
0.15120628 0.1540911 -0.09188676 -0.1995515 0.1916223 -0.45430163 0.06440892 0.119482756
0.24026193 0.17741702 -0.24883945 -0.29042858 0.26635337 0.049896926 -0.0960013 -0.20748672
0.19450417 -0.19960459 0.010911958 -0.19704501 -0.16055062 0.1847379 0.115695596 0.3125268
0.36939946 0.32937595 -0.5340477 0.02514578 0.29336393 -0.30788538 0.026290976 -0.24238642
0.5396373 0.15711927 0.0074372957 0.17837399 -0.3538265 0.21460724 0.16002674 0.28737837
-0.3387415 -0.25992802 -0.1614274 -0.4701798 0.46029684 0.1852938 -0.30393928 0.12708238
0.37194043 0.50099206 -0.41847497 1.0141727 0.115458846 -0.24206719 0.12887749 -0.056612678
-0.02433602 -0.29597813 -0.10085717 0.025411181 0.30895856 -0.82757664 0.15648629 0.11797448
0.043932773 0.46551138 0.1338497 0.24213448 -0.5410805 0.014289612 0.38841787 -0.9191516
-0.29282057 0.0056454567 0.1940494 -1.012861 -0.6985846 0.28762844 -0.17158173 -0.05692058
0.058299195 -0.26795056 -0.30933172 0.6687748 0.5535963 -0.047132403 -1.3686521 0.8197586
0.24282551 -0.32029253 0.04129137 0.11400578 -0.46127716 0.25530648 0.13783002 0.34570888
0.13444278 -0.3024521 -0.041531235 -0.63354045 0.29230928 -0.3306332 0.2675246 -0.3197224
-0.15829924 -0.08988459 -0.06581959 0.4992936 0.22223829 0.5412681 -0.34206712 -0.23995851
0.09085094 -0.31355968 -0.074836 0.0060711037 0.4881597 -0.111737736 -0.19133563 -0.15465763
-0.32637247 0.07320698 0.4554706 0.20426524 -0.43398193 0.0103395 -0.12619415 0.2746946
-0.017439611 -0.20150344 0.2089913 -0.049720526 0.39285788 0.071752846 -0.16466938 0.39597815
0.27905816 0.120661594 -0.21777986 -0.45856735 0.71126884 -0.24828094 -0.08058297 -0.014237901
-0.17430109 0.45110488 0.1160394 0.38865182 0.06988584 0.1306955 0.37918532 -0.5326152
0.014283303 0.37282604 0.10237314 0.60944 -0.06739075 -0.9435376 -0.4064993 -0.21046981
0.05635508 -0.3804086 0.11057405 0.27455416 0.42470428 -0.054731928 -0.2542227 0.086515546
0.13591067 -0.4651857 -0.21642861 0.317919 0.19859922 -0.27974728 0.0950509 -0.19870117

decoder.2.bias f4 [64]
00000000: ed96 17bf d89d b6be 586b 85bf d320 523f
00000010: 95ab 783e 1475 a5a9 eea4 35be de53 233e
00000020: 8a03 4b3d 1027 593f 4207 183f 2ea9 7ebd
00000030: 8210 9ebf 4ce4 713d 54e6 8abf 35d0 5a3e
00000040: 52dc 943e 0920 cebc 22ff 733f a713 883e
00000050: 1441 d93e a33c c53e 8b7d 2c3f db53 863e
00000060: 3f2c a6b8 ccc8 cb3e e42e 0e3f 5eb3 00a9
00000070: 8a4d 52bd 23ec 2b3e 3584 563e f2fa d23e
00000080: a9dc 033d ede3 933e d2af d63e db66 8ebd
00000090: 9816 3c3e af4a 24bf d1bb 5f3d 8f19 2dbd
000000a0: 460b 1c3f 2983 d23d 3727 f93e f937 6080
000000b0: 303b 083e 3512 de3e 807f 6abe ac86 48bf
000000c0: 3ffc 103e a86a 25bf c282 e43e 0595 cd3e
000000d0: 3404 1c81 cb32 123f 3f65 20bf 2fbb 37ba
000000e0: be89 093e fd6d 57be 1041 1780 383e d7be
000000f0: 71eb 153e 86e4 36be b5a1 173f 4875 a6bb
-0.5921467 -0.356673 -1.0423384 0.82081336 0.24284203 -7.347782e-14 -0.17738697 0.15949962
0.049563922 0.8482523 0.59386075 -0.06217306 -1.2348788 0.05905561 -1.085154 0.21368487
0.2907434 -0.02516176 0.95311177 0.26577494 0.42432463 0.38522825 0.67379063 0.26235852
-7.923738e-05 0.39801633 0.555403 -2.8577286e-14 -0.05134348 0.16789298 0.2094887 0.4120708
0.03219286 0.2888483 0.41931015 -0.06953212 0.18367994 -0.6417646 0.054622475 -0.042260703
0.609547 0.10278923 0.4866273 -8.836287e-39 0.13303828 0.43373266 -0.229002 -0.7833049
0.14158724 -0.6461587 0.4463101 0.40152755 -2.865569e-38 0.57108754 -0.6265449 -0.00070087885
0.1343145 -0.21038051 -2.135556e-39 -0.42039657 0.14640595 -0.17860612 0.5923112 -0.005079899

decoder.4.weight f4 [128, 64]
00000000: 37d8 68bd 3c7e 823d 3d32 05bf 8d48 123d
00000010: 40e5 f43b d141 c536 7865 543d 1420 bebc
00000020: 12fc 173e 64f6 353e 95c0 13be f4b2 b33c
00000030: eb7d 0c3e 48d3 75be fac8 49be 8539 663e
00000040: 44a5 8bbd 4b99 443c 2ad8 f8bd 50f4 c33d
00000050: 25be 683e a691 553e f922 173e 3650 2a3e
00000060: f19f a6b6 cd52 89be 2f36 333b 607c eab3
00000070: cee5 bb3d 8fec bfbd abc2 0f3e e65e 2d3e
00000080: e127 3bbd 45c7 643d 8013 6b3e 3624 623d
00000090: b42e 4b3e d326 c43d c6e8 86bd c8f2 1b3e
000000a0: 1edc 36bd 515a 8a3d 1894 39be c26a 7b10
000000b0: 16f0 9a3d 394c c43e 261e 32bf c57b d8bd
000000c0: 14b2 b1bd bf06 d4bd 5e2e 99b9 0897 6c3e
000000d0: 4cff 9db1 0095 3dbd 2816 3abd 5c11 83bb
000000e0: a4c0 0c3e c573 59be 9fa7 0c00 c1ec 11be
000000f0: d159 c13d 2614 3e3d a6f6 1abd 3a4e 58ba
00000100: 4b3f 27b0 167b 15ad 20da 43aa 5643 bb94
00000110: c720 0680 806e 7101 4bd4 7b9c 904a 69ac
00000120: 37ea 7fb2 4e8e 28b7 b875 dbaa bfe4 75aa
00000130: fe94 dbb4 57fe adab 7839 81b2 0785 28b3
00000140: 294c a8b7 3d27 2ea6 8f3b 2eab db90 97b1
00000150: 4543 e9b0 bcb0 51ac 690d 01ac dea9 3fac
00000160: ec9d 8581 852f 14a0 937c 1eb1 d15d 3f01
00000170: 61cd b3b3 2143 3fb2 60d2 f5b0 62f3 8fa1
00000180: d4ac 1d81 ef69 9981 f80d 98b3 812c 2daa
00000190: e7e2 f1a4 fd0b 8db5 cdf7 078c 80c1 2ba7
000001a0: 5945 d099 7df9 02b3 1849 8181 f8cd 0681
000001b0: 6efc fda6 5021 0da6 a2ad 92a5 c804 5ba9
000001c0: cecd d0b7 d435 aba9 d435 a1a6 e819 ecb0
000001d0: 7c52 af01 cc3c 01b1 2230 ddb3 64b5 3600
000001e0: 32c4 1b81 b76d bcb2 b9d6 a401 3fbb 0aac
000001f0: b768 28b7 686b 3e9c b986 42aa 3ad1 8981
00000200: 7ddd bcbd c223 4ebd 427d 3d3e 9fd4 c93d
00000210: 69f6 e3bd c5ef 4924 1dce 16be 2c86 90bd
00000220: dceb e23d d7c6 a0be 958d 1e3e 501f 93bd
00000230: f91a c3ba 18f4 e53d 0411 af3e c914 8c3d
00000240: fd7f 81be 98e4 1c3d 6b97 dc3e 1932 84be
00000250: aed4 51bd b553 9dbd 4f95 2bba 381f 92bc
00000260: 1af7 c439 9148 93be a131 07bd 6c7c 891d
00000270: e18a 60be 70d2 243e f98c c9be 1a77 5ebd
00000280: 0301 6abd 7722 05bc 2fc4 013d 932e 24bd
00000290: bb94 a03d 79d8 2dbe 6f0a ee3d d534 acbe
000002a0: d81e 3cbe 6d66 babe b887 493e cec3 6881
000002b0: 79c2 c4bd c184 863e 4609 e03e 1e29 c43e
000002c0: 7c1a cdbe 148b 3f3e f05f d4bc 6a6c 3d3d
000002d0: 93d4 5a07 c67e 31be c3a6 0e3e 2e3f 2239
000002e0: 81de 55be 5613 393e b7d8 8781 04da 96bd
000002f0: 4b4d 0bbf e3de 893c 25c2 d8bd 2807 24bb
00000300: f5e0 f13c 8600 843d 97ab 093e aa2c 713d
00000310: d60d b83d 9797 a033 9c89 21be 49b0 96be
00000320: d489 aa3d 4e34 eb3d 3d35 1ebe 5d50 5c3e
00000330: effb 9bbd ef19 8cbd ffe8 aebc ddee fd3d
00000340: b7b3 083e a113 543e 208b 633e efb1 c23d
00000350: b144 313e de76 f1bd c514 2b3c a043 27be
00000360: d189 bb3b e465 903e dbbd 83be 04f4 222e
00000370: fd55 5bbd 6947 c3bd 4737 903d 84c3 d33c
00000380: a419 4ebd 3a19 acbc c5e8 26be cd3c 3ebd
00000390: 691a 3abe 6c66 a0be 1b41 7ebd fb8a 0f3e
000003a0: 7cb7 17bc 7d1c 2e3d 1ea6 81bd 62aa 5981
000003b0: e2f8 3b3d 17ce e53e 098f cdbe fe7c 28be
000003c0: 9e03 6b3e c4bb 62be 918b c4bd f560 403c
000003d0: e8ac 109b cf2c 28be 39e2 a2bd b61b afba
000003e0: 77a2 923d 6f35 7fbc 3a4e 6480 4172 15bd
000003f0: 7acb 4fbd 597f 1abe 69a6 8a3d b808 28bb
-0.056846824 0.063717335 -0.5202978 0.03571372 0.007473618 5.8787195e-06 0.05185458 -0.023208655
0.14842251 0.17769772 -0.14428933 0.021935917 0.13719909 -0.24006379 -0.19705573 0.2248288
-0.06818631 0.0119994385 -0.12150605 0.09568083 0.22728784 0.20856342 0.14759435 0.1663216
-4.965805e-06 -0.26820984 0.0027345528 -1.0919098e-07 0.09174691 -0.09371292 0.14039104 0.16930732
-0.04569233 0.0558541 0.22956657 0.055210315 0.19842035 0.09577718 -0.06587367 0.15229332
-0.044643514 0.06755508 -0.181229 4.9583265e-29 0.07565324 0.38339403 -0.6957725 -0.10570482
-0.08676544 -0.10352849 -0.0002921698 0.23104489 -4.5983253e-09 -0.046284676 -0.045431286 -0.003999872
0.13745362 -0.21235569 1.162157e-39 -0.1425047 0.09440959 0.046405934 -0.03783288 -0.0008251403
-6.084419e-10 -8.497e-12 -1.7395156e-13 -1.8908734e-26 -5.62771e-40 4.434399e-38 -8.3323316e-22 -3.3152682e-12
-1.4896208e-08 -1.0046713e-05 -3.8983899e-13 -2.1839734e-13 -4.0900335e-07 -1.2362983e-12 -1.504371e-08 -3.9236536e-08
-2.0062625e-05 -6.0421555e-16 -6.189987e-13 -4.4111466e-09 -1.69721e-09 -2.9798794e-12 -1.8339447e-12 -2.7237028e-12
-4.908309e-38 -1.255181e-19 -2.3062838e-09 3.514847e-38 -8.372695e-08 -1.1132927e-08 -1.7885888e-09 -9.75448e-19
-2.8960344e-38 -5.635533e-38 -7.0805925e-08 -1.5380927e-13 -1.0490148e-16 -1.0508808e-06 -1.0474592e-31 -2.3835914e-15
-2.1534705e-23 -3.0494892e-08 -4.7492e-38 -2.4759688e-38 -1.7623823e-15 -4.896435e-16 -2.544462e-16 -4.8631916e-14
-2.4891368e-05 -7.603263e-14 -1.1186209e-15 -1.7178623e-09 6.4403207e-38 -1.880653e-09 -1.029987e-07 5.024187e-39
-2.8609767e-38 -2.1935973e-08 6.05522e-38 -1.9714922e-12 -1.0037961e-05 -6.3004546e-22 -1.7277403e-13 -5.062608e-38
-0.09221933 -0.05032707 0.18504813 0.098550074 -0.111309834 4.378802e-17 -0.14727063 -0.07056841
0.11080143 -0.31401703 0.15483697 -0.07183707 -0.0014885358 0.11228198 0.3419267 0.06839902
-0.2529296 0.03830394 0.43084273 -0.2581947 -0.051228218 -0.076819815 -0.0006545381 -0.017837152
0.00037568138 -0.287663 -0.033006314 3.6392247e-21 -0.21927978 0.160959 -0.39365366 -0.054312803
-0.05712987 -0.008125893 0.031681236 -0.04008348 0.07840868 -0.16977109 0.11623084 -0.33634058
-0.18371141 -0.3640627 0.19680679 -4.2752153e-38 -0.09607405 0.26273158 0.43757075 0.3831262
-0.40059268 0.18705398 -0.025924653 0.04624597 1.6462967e-34 -0.17333516 0.13930802 0.0001547306
-0.2088566 0.18073782 -4.990214e-38 -0.07365802 -0.54414815 0.016829913 -0.10583905 -0.002502868
0.029526213 0.06445412 0.13444363 0.058880486 0.08987014 7.4781546e-08 -0.1577515 -0.2943137
0.0832707 0.11484586 -0.15449996 0.21515031 -0.07616412 -0.06840884 -0.021351336 0.12399075
0.13349806 0.20710613 0.2222104 0.095065944 0.1731136 -0.1179025 0.010441964 -0.1633439
0.005723216 0.28202736 -0.25730786 3.7051265e-11 -0.0535488 -0.09535105 0.07041793 0.025850065
-0.05031742 -0.021008123 -0.16299732 -0.046444703 -0.18174137 -0.31328142 -0.06207381 0.1401786
-0.009260055 0.042507637 -0.063305125 -3.997885e-38 0.04589165 0.44883797 -0.4014819 -0.1645393
0.22950599 -0.2214194 -0.09596933 0.011741866 -1.196727e-22 -0.16423343 -0.07953305 -0.0013359699
0.07159894 -0.015576704 -9.211612e-39 -0.036485914 -0.05073116 -0.15087642 0.067700215 -0.0025639962

decoder.4.bias f4 [128]
00000000: 1438 7e3e 8562 b799 2fa6 86bd 5f6f 933d
00000010: 6317 0f3e 62ef 8481 7388 1fbd c5ea 8a3e
00000020: 1313 34be 24e9 1fbd 6f49 a480 6a52 2c81
00000030: b4e5 2a3e e78e 92bd 4c13 6f3e 5b6e e73c
00000040: bedd 503e b60e 5aba 089a 08a7 c318 4d3d
00000050: ffa6 ab80 b680 883c 6608 2e95 bd62 a481
00000060: 1878 f0bd 2a0f d39f 6a86 073e 0812 1fbd
00000070: 60dc d43d c40b 5780 c90d 853d c28c af3e
00000080: ea0e cd3d 2be9 9d3d 1dd1 01bd 9598 ad3d
00000090: 2040 cc3d 3b0a 083d 722d 0d81 5f59 6281
000000a0: 0e7a c73d b3ee f83b 1c9a 20bd cd82 10bd
000000b0: 1a87 e93d b7d9 0dbe 8a48 713e 105d 5b00
000000c0: 5a9e 0f3e 5ba4 893d 6037 6cbb 7b38 2a81
000000d0: 2185 a03e c9bd 1b83 1bc7 c83e 5e5a 8dbd
000000e0: d305 4dba 0625 233c 4bb4 bcbc af67 1a3e
000000f0: 5041 35be b1bc 72bd 3dd9 2bbc 7d8a d93d
00000100: 9ab5 efbc 575f 4fbb 2e3e c1a8 dbb3 613e
00000110: 1838 8181 120b 3b81 0936 843d ef43 c43b
00000120: 21b8 ffbd c0b4 19bd 498c 7e9a dc52 59bd
00000130: 54b3 423e 3756 213d dd9b 1607 0726 c1bd
00000140: 7974 193e 07c0 5cbd 7a43 4abd fffd 853d
00000150: 9899 123e 1006 4eb3 121c 9180 6a13 253e
00000160: 3d34 833d 3a22 423e 86c6 9181 e99e d6bd
00000170: 7481 71be 1c48 b9b9 c6e5 723d 977b 1b81
00000180: f4c6 0f83 9a55 1abd 546b 033e 91b9 34bd
00000190: a71a 2a3e 9786 7fbc 10ac 2981 c356 099d
000001a0: 24cc 2fbc f464 8d3e c24a 263e 9aea 6bbd
000001b0: 3837 a3bc b3f7 603e 25a2 143e d678 033d
000001c0: 1f0f 5b3e 17f9 afbd 4ed5 f7b7 e83f ca00
000001d0: def4 7281 039b 853c 83fd 8bbd 0591 973e
000001e0: ccfc fe80 b837 703e 737f ae3c 6f8b 09be
000001f0: bb62 263d 20e1 c19d 0d07 57bd f560 6781
0.2482608 -1.8961548e-23 -0.06574666 0.07198977 0.13973765 -4.883264e-38 -0.038948487 0.2713224
-0.17585401 -0.0390407 -1.5087364e-38 -3.165054e-38 0.16689187 -0.07156163 0.23347205 0.028250864
0.20397088 -0.0008318232 -1.8957292e-15 0.050072443 -1.5763777e-38 0.016662937 -3.5145645e-26 -6.038577e-38
-0.11741656 -8.938706e-20 0.13234869 -0.038835555 0.10393596 -7.993909e-39 0.0649677 0.34287077
0.1001261 0.07710489 -0.031693567 0.08476368 0.099731684 0.03321288 -2.5930215e-38 -4.1573765e-38
0.09740077 0.0075968145 -0.03920947 -0.03528099 0.11402722 -0.13852583 0.23562828 8.390415e-39
0.1402525 0.067208014 -0.0036043748 -3.1264591e-38 0.3135157 -4.576827e-37 0.39214405 -0.06902002
-0.0007820997 0.009957558 -0.02303519 0.15078615 -0.17700696 -0.05926198 -0.010488805 0.10622118
-0.029261399 -0.003164252 -2.145427e-14 0.22041266 -4.7467607e-38 -3.4354418e-38 0.06455619 0.0059895436
-0.12486292 -0.037525892 -5.263929e-23 -0.053057536 0.19013721 0.03938886 1.133055e-34 -0.09431081
0.14985837 -0.05389407 -0.049380757 0.065425865 0.14316404 -4.7968626e-08 -1.3326217e-38 0.16120687
0.06406448 0.18958369 -5.3549455e-38 -0.104795285 -0.23584539 -0.00035339675 0.05930116 -2.8557675e-38
-4.225231e-37 -0.037679292 0.12833911 -0.044122282 0.1661173 -0.015596054 -3.1163846e-38 -1.8176654e-21
-0.010729823 0.27616084 0.16239455 -0.05759678 -0.019923791 0.2196949 0.14514978 0.03209766
0.21392487 -0.08592432 -2.9544022e-05 1.8573695e-38 -4.4624064e-38 0.016309267 -0.06835463 0.2960283
-2.3416902e-38 0.23458755 0.021301007 -0.13432096 0.0406215 -5.131945e-21 -0.05249696 -4.2497562e-38
